1.13.1
1.13.1
Saved model to disk
__________________________________________________________________________________________________
Layer (type)                    Output Shape         Param #     Connected to                     
==================================================================================================
input_1 (InputLayer)            (None, 256, 256, 3)  0                                            
__________________________________________________________________________________________________
conv_1 (Conv2D)                 (None, 125, 125, 64) 9408        input_1[0][0]                    
__________________________________________________________________________________________________
batch_normalization_1 (BatchNor (None, 125, 125, 64) 256         conv_1[0][0]                     
__________________________________________________________________________________________________
leaky_re_lu_1 (LeakyReLU)       (None, 125, 125, 64) 0           batch_normalization_1[0][0]      
__________________________________________________________________________________________________
max_pooling2d_1 (MaxPooling2D)  (None, 62, 62, 64)   0           leaky_re_lu_1[0][0]              
__________________________________________________________________________________________________
batch_normalization_2 (BatchNor (None, 62, 62, 64)   256         max_pooling2d_1[0][0]            
__________________________________________________________________________________________________
leaky_re_lu_2 (LeakyReLU)       (None, 62, 62, 64)   0           batch_normalization_2[0][0]      
__________________________________________________________________________________________________
conv_31 (Conv2D)                (None, 62, 62, 64)   4096        leaky_re_lu_2[0][0]              
__________________________________________________________________________________________________
batch_normalization_3 (BatchNor (None, 62, 62, 64)   256         conv_31[0][0]                    
__________________________________________________________________________________________________
leaky_re_lu_3 (LeakyReLU)       (None, 62, 62, 64)   0           batch_normalization_3[0][0]      
__________________________________________________________________________________________________
conv2d_1 (Conv2D)               (None, 62, 62, 64)   36864       leaky_re_lu_3[0][0]              
__________________________________________________________________________________________________
batch_normalization_4 (BatchNor (None, 62, 62, 64)   256         conv2d_1[0][0]                   
__________________________________________________________________________________________________
add_1 (Add)                     (None, 62, 62, 64)   0           batch_normalization_4[0][0]      
                                                                 leaky_re_lu_2[0][0]              
__________________________________________________________________________________________________
leaky_re_lu_4 (LeakyReLU)       (None, 62, 62, 64)   0           add_1[0][0]                      
__________________________________________________________________________________________________
conv_32 (Conv2D)                (None, 62, 62, 64)   4096        leaky_re_lu_4[0][0]              
__________________________________________________________________________________________________
batch_normalization_5 (BatchNor (None, 62, 62, 64)   256         conv_32[0][0]                    
__________________________________________________________________________________________________
leaky_re_lu_5 (LeakyReLU)       (None, 62, 62, 64)   0           batch_normalization_5[0][0]      
__________________________________________________________________________________________________
conv2d_2 (Conv2D)               (None, 62, 62, 64)   36864       leaky_re_lu_5[0][0]              
__________________________________________________________________________________________________
batch_normalization_6 (BatchNor (None, 62, 62, 64)   256         conv2d_2[0][0]                   
__________________________________________________________________________________________________
add_2 (Add)                     (None, 62, 62, 64)   0           batch_normalization_6[0][0]      
                                                                 leaky_re_lu_4[0][0]              
__________________________________________________________________________________________________
leaky_re_lu_6 (LeakyReLU)       (None, 62, 62, 64)   0           add_2[0][0]                      
__________________________________________________________________________________________________
conv_33 (Conv2D)                (None, 62, 62, 64)   4096        leaky_re_lu_6[0][0]              
__________________________________________________________________________________________________
batch_normalization_7 (BatchNor (None, 62, 62, 64)   256         conv_33[0][0]                    
__________________________________________________________________________________________________
leaky_re_lu_7 (LeakyReLU)       (None, 62, 62, 64)   0           batch_normalization_7[0][0]      
__________________________________________________________________________________________________
conv2d_3 (Conv2D)               (None, 62, 62, 64)   36864       leaky_re_lu_7[0][0]              
__________________________________________________________________________________________________
batch_normalization_8 (BatchNor (None, 62, 62, 64)   256         conv2d_3[0][0]                   
__________________________________________________________________________________________________
add_3 (Add)                     (None, 62, 62, 64)   0           batch_normalization_8[0][0]      
                                                                 leaky_re_lu_6[0][0]              
__________________________________________________________________________________________________
leaky_re_lu_8 (LeakyReLU)       (None, 62, 62, 64)   0           add_3[0][0]                      
__________________________________________________________________________________________________
conv2d_4 (Conv2D)               (None, 30, 30, 128)  73728       leaky_re_lu_8[0][0]              
__________________________________________________________________________________________________
batch_normalization_9 (BatchNor (None, 30, 30, 128)  512         conv2d_4[0][0]                   
__________________________________________________________________________________________________
leaky_re_lu_9 (LeakyReLU)       (None, 30, 30, 128)  0           batch_normalization_9[0][0]      
__________________________________________________________________________________________________
conv2d_5 (Conv2D)               (None, 30, 30, 128)  16384       leaky_re_lu_9[0][0]              
__________________________________________________________________________________________________
batch_normalization_10 (BatchNo (None, 30, 30, 128)  512         conv2d_5[0][0]                   
__________________________________________________________________________________________________
leaky_re_lu_10 (LeakyReLU)      (None, 30, 30, 128)  0           batch_normalization_10[0][0]     
__________________________________________________________________________________________________
conv2d_6 (Conv2D)               (None, 30, 30, 128)  147456      leaky_re_lu_10[0][0]             
__________________________________________________________________________________________________
batch_normalization_11 (BatchNo (None, 30, 30, 128)  512         conv2d_6[0][0]                   
__________________________________________________________________________________________________
add_4 (Add)                     (None, 30, 30, 128)  0           batch_normalization_11[0][0]     
                                                                 leaky_re_lu_9[0][0]              
__________________________________________________________________________________________________
leaky_re_lu_11 (LeakyReLU)      (None, 30, 30, 128)  0           add_4[0][0]                      
__________________________________________________________________________________________________
conv2d_7 (Conv2D)               (None, 30, 30, 128)  16384       leaky_re_lu_11[0][0]             
__________________________________________________________________________________________________
batch_normalization_12 (BatchNo (None, 30, 30, 128)  512         conv2d_7[0][0]                   
__________________________________________________________________________________________________
leaky_re_lu_12 (LeakyReLU)      (None, 30, 30, 128)  0           batch_normalization_12[0][0]     
__________________________________________________________________________________________________
conv2d_8 (Conv2D)               (None, 30, 30, 128)  147456      leaky_re_lu_12[0][0]             
__________________________________________________________________________________________________
batch_normalization_13 (BatchNo (None, 30, 30, 128)  512         conv2d_8[0][0]                   
__________________________________________________________________________________________________
add_5 (Add)                     (None, 30, 30, 128)  0           batch_normalization_13[0][0]     
                                                                 leaky_re_lu_11[0][0]             
__________________________________________________________________________________________________
leaky_re_lu_13 (LeakyReLU)      (None, 30, 30, 128)  0           add_5[0][0]                      
__________________________________________________________________________________________________
conv2d_9 (Conv2D)               (None, 30, 30, 128)  16384       leaky_re_lu_13[0][0]             
__________________________________________________________________________________________________
batch_normalization_14 (BatchNo (None, 30, 30, 128)  512         conv2d_9[0][0]                   
__________________________________________________________________________________________________
leaky_re_lu_14 (LeakyReLU)      (None, 30, 30, 128)  0           batch_normalization_14[0][0]     
__________________________________________________________________________________________________
conv2d_10 (Conv2D)              (None, 30, 30, 128)  147456      leaky_re_lu_14[0][0]             
__________________________________________________________________________________________________
batch_normalization_15 (BatchNo (None, 30, 30, 128)  512         conv2d_10[0][0]                  
__________________________________________________________________________________________________
add_6 (Add)                     (None, 30, 30, 128)  0           batch_normalization_15[0][0]     
                                                                 leaky_re_lu_13[0][0]             
__________________________________________________________________________________________________
leaky_re_lu_15 (LeakyReLU)      (None, 30, 30, 128)  0           add_6[0][0]                      
__________________________________________________________________________________________________
conv2d_11 (Conv2D)              (None, 30, 30, 128)  16384       leaky_re_lu_15[0][0]             
__________________________________________________________________________________________________
batch_normalization_16 (BatchNo (None, 30, 30, 128)  512         conv2d_11[0][0]                  
__________________________________________________________________________________________________
leaky_re_lu_16 (LeakyReLU)      (None, 30, 30, 128)  0           batch_normalization_16[0][0]     
__________________________________________________________________________________________________
conv2d_12 (Conv2D)              (None, 30, 30, 128)  147456      leaky_re_lu_16[0][0]             
__________________________________________________________________________________________________
batch_normalization_17 (BatchNo (None, 30, 30, 128)  512         conv2d_12[0][0]                  
__________________________________________________________________________________________________
add_7 (Add)                     (None, 30, 30, 128)  0           batch_normalization_17[0][0]     
                                                                 leaky_re_lu_15[0][0]             
__________________________________________________________________________________________________
leaky_re_lu_17 (LeakyReLU)      (None, 30, 30, 128)  0           add_7[0][0]                      
__________________________________________________________________________________________________
conv2d_13 (Conv2D)              (None, 14, 14, 256)  294912      leaky_re_lu_17[0][0]             
__________________________________________________________________________________________________
batch_normalization_18 (BatchNo (None, 14, 14, 256)  1024        conv2d_13[0][0]                  
__________________________________________________________________________________________________
leaky_re_lu_18 (LeakyReLU)      (None, 14, 14, 256)  0           batch_normalization_18[0][0]     
__________________________________________________________________________________________________
conv2d_14 (Conv2D)              (None, 14, 14, 256)  65536       leaky_re_lu_18[0][0]             
__________________________________________________________________________________________________
batch_normalization_19 (BatchNo (None, 14, 14, 256)  1024        conv2d_14[0][0]                  
__________________________________________________________________________________________________
leaky_re_lu_19 (LeakyReLU)      (None, 14, 14, 256)  0           batch_normalization_19[0][0]     
__________________________________________________________________________________________________
conv2d_15 (Conv2D)              (None, 14, 14, 256)  589824      leaky_re_lu_19[0][0]             
__________________________________________________________________________________________________
batch_normalization_20 (BatchNo (None, 14, 14, 256)  1024        conv2d_15[0][0]                  
__________________________________________________________________________________________________
add_8 (Add)                     (None, 14, 14, 256)  0           batch_normalization_20[0][0]     
                                                                 leaky_re_lu_18[0][0]             
__________________________________________________________________________________________________
leaky_re_lu_20 (LeakyReLU)      (None, 14, 14, 256)  0           add_8[0][0]                      
__________________________________________________________________________________________________
conv2d_16 (Conv2D)              (None, 14, 14, 256)  65536       leaky_re_lu_20[0][0]             
__________________________________________________________________________________________________
batch_normalization_21 (BatchNo (None, 14, 14, 256)  1024        conv2d_16[0][0]                  
__________________________________________________________________________________________________
leaky_re_lu_21 (LeakyReLU)      (None, 14, 14, 256)  0           batch_normalization_21[0][0]     
__________________________________________________________________________________________________
conv2d_17 (Conv2D)              (None, 14, 14, 256)  589824      leaky_re_lu_21[0][0]             
__________________________________________________________________________________________________
batch_normalization_22 (BatchNo (None, 14, 14, 256)  1024        conv2d_17[0][0]                  
__________________________________________________________________________________________________
add_9 (Add)                     (None, 14, 14, 256)  0           batch_normalization_22[0][0]     
                                                                 leaky_re_lu_20[0][0]             
__________________________________________________________________________________________________
leaky_re_lu_22 (LeakyReLU)      (None, 14, 14, 256)  0           add_9[0][0]                      
__________________________________________________________________________________________________
conv2d_18 (Conv2D)              (None, 14, 14, 256)  65536       leaky_re_lu_22[0][0]             
__________________________________________________________________________________________________
batch_normalization_23 (BatchNo (None, 14, 14, 256)  1024        conv2d_18[0][0]                  
__________________________________________________________________________________________________
leaky_re_lu_23 (LeakyReLU)      (None, 14, 14, 256)  0           batch_normalization_23[0][0]     
__________________________________________________________________________________________________
conv2d_19 (Conv2D)              (None, 14, 14, 256)  589824      leaky_re_lu_23[0][0]             
__________________________________________________________________________________________________
batch_normalization_24 (BatchNo (None, 14, 14, 256)  1024        conv2d_19[0][0]                  
__________________________________________________________________________________________________
add_10 (Add)                    (None, 14, 14, 256)  0           batch_normalization_24[0][0]     
                                                                 leaky_re_lu_22[0][0]             
__________________________________________________________________________________________________
leaky_re_lu_24 (LeakyReLU)      (None, 14, 14, 256)  0           add_10[0][0]                     
__________________________________________________________________________________________________
conv2d_20 (Conv2D)              (None, 14, 14, 256)  65536       leaky_re_lu_24[0][0]             
__________________________________________________________________________________________________
batch_normalization_25 (BatchNo (None, 14, 14, 256)  1024        conv2d_20[0][0]                  
__________________________________________________________________________________________________
leaky_re_lu_25 (LeakyReLU)      (None, 14, 14, 256)  0           batch_normalization_25[0][0]     
__________________________________________________________________________________________________
conv2d_21 (Conv2D)              (None, 14, 14, 256)  589824      leaky_re_lu_25[0][0]             
__________________________________________________________________________________________________
batch_normalization_26 (BatchNo (None, 14, 14, 256)  1024        conv2d_21[0][0]                  
__________________________________________________________________________________________________
add_11 (Add)                    (None, 14, 14, 256)  0           batch_normalization_26[0][0]     
                                                                 leaky_re_lu_24[0][0]             
__________________________________________________________________________________________________
leaky_re_lu_26 (LeakyReLU)      (None, 14, 14, 256)  0           add_11[0][0]                     
__________________________________________________________________________________________________
conv2d_22 (Conv2D)              (None, 14, 14, 256)  65536       leaky_re_lu_26[0][0]             
__________________________________________________________________________________________________
batch_normalization_27 (BatchNo (None, 14, 14, 256)  1024        conv2d_22[0][0]                  
__________________________________________________________________________________________________
leaky_re_lu_27 (LeakyReLU)      (None, 14, 14, 256)  0           batch_normalization_27[0][0]     
__________________________________________________________________________________________________
conv2d_23 (Conv2D)              (None, 14, 14, 256)  589824      leaky_re_lu_27[0][0]             
__________________________________________________________________________________________________
batch_normalization_28 (BatchNo (None, 14, 14, 256)  1024        conv2d_23[0][0]                  
__________________________________________________________________________________________________
add_12 (Add)                    (None, 14, 14, 256)  0           batch_normalization_28[0][0]     
                                                                 leaky_re_lu_26[0][0]             
__________________________________________________________________________________________________
leaky_re_lu_28 (LeakyReLU)      (None, 14, 14, 256)  0           add_12[0][0]                     
__________________________________________________________________________________________________
conv2d_24 (Conv2D)              (None, 14, 14, 256)  65536       leaky_re_lu_28[0][0]             
__________________________________________________________________________________________________
batch_normalization_29 (BatchNo (None, 14, 14, 256)  1024        conv2d_24[0][0]                  
__________________________________________________________________________________________________
leaky_re_lu_29 (LeakyReLU)      (None, 14, 14, 256)  0           batch_normalization_29[0][0]     
__________________________________________________________________________________________________
conv2d_25 (Conv2D)              (None, 14, 14, 256)  589824      leaky_re_lu_29[0][0]             
__________________________________________________________________________________________________
batch_normalization_30 (BatchNo (None, 14, 14, 256)  1024        conv2d_25[0][0]                  
__________________________________________________________________________________________________
add_13 (Add)                    (None, 14, 14, 256)  0           batch_normalization_30[0][0]     
                                                                 leaky_re_lu_28[0][0]             
__________________________________________________________________________________________________
leaky_re_lu_30 (LeakyReLU)      (None, 14, 14, 256)  0           add_13[0][0]                     
__________________________________________________________________________________________________
conv2d_26 (Conv2D)              (None, 6, 6, 512)    1179648     leaky_re_lu_30[0][0]             
__________________________________________________________________________________________________
batch_normalization_31 (BatchNo (None, 6, 6, 512)    2048        conv2d_26[0][0]                  
__________________________________________________________________________________________________
leaky_re_lu_31 (LeakyReLU)      (None, 6, 6, 512)    0           batch_normalization_31[0][0]     
__________________________________________________________________________________________________
conv2d_27 (Conv2D)              (None, 6, 6, 512)    262144      leaky_re_lu_31[0][0]             
__________________________________________________________________________________________________
batch_normalization_32 (BatchNo (None, 6, 6, 512)    2048        conv2d_27[0][0]                  
__________________________________________________________________________________________________
leaky_re_lu_32 (LeakyReLU)      (None, 6, 6, 512)    0           batch_normalization_32[0][0]     
__________________________________________________________________________________________________
conv2d_28 (Conv2D)              (None, 6, 6, 512)    2359296     leaky_re_lu_32[0][0]             
__________________________________________________________________________________________________
batch_normalization_33 (BatchNo (None, 6, 6, 512)    2048        conv2d_28[0][0]                  
__________________________________________________________________________________________________
add_14 (Add)                    (None, 6, 6, 512)    0           batch_normalization_33[0][0]     
                                                                 leaky_re_lu_31[0][0]             
__________________________________________________________________________________________________
leaky_re_lu_33 (LeakyReLU)      (None, 6, 6, 512)    0           add_14[0][0]                     
__________________________________________________________________________________________________
conv2d_29 (Conv2D)              (None, 6, 6, 512)    262144      leaky_re_lu_33[0][0]             
__________________________________________________________________________________________________
batch_normalization_34 (BatchNo (None, 6, 6, 512)    2048        conv2d_29[0][0]                  
__________________________________________________________________________________________________
leaky_re_lu_34 (LeakyReLU)      (None, 6, 6, 512)    0           batch_normalization_34[0][0]     
__________________________________________________________________________________________________
conv2d_30 (Conv2D)              (None, 6, 6, 512)    2359296     leaky_re_lu_34[0][0]             
__________________________________________________________________________________________________
batch_normalization_35 (BatchNo (None, 6, 6, 512)    2048        conv2d_30[0][0]                  
__________________________________________________________________________________________________
add_15 (Add)                    (None, 6, 6, 512)    0           batch_normalization_35[0][0]     
                                                                 leaky_re_lu_33[0][0]             
__________________________________________________________________________________________________
leaky_re_lu_35 (LeakyReLU)      (None, 6, 6, 512)    0           add_15[0][0]                     
__________________________________________________________________________________________________
conv2d_31 (Conv2D)              (None, 6, 6, 512)    262144      leaky_re_lu_35[0][0]             
__________________________________________________________________________________________________
batch_normalization_36 (BatchNo (None, 6, 6, 512)    2048        conv2d_31[0][0]                  
__________________________________________________________________________________________________
leaky_re_lu_36 (LeakyReLU)      (None, 6, 6, 512)    0           batch_normalization_36[0][0]     
__________________________________________________________________________________________________
conv2d_32 (Conv2D)              (None, 6, 6, 512)    2359296     leaky_re_lu_36[0][0]             
__________________________________________________________________________________________________
batch_normalization_37 (BatchNo (None, 6, 6, 512)    2048        conv2d_32[0][0]                  
__________________________________________________________________________________________________
add_16 (Add)                    (None, 6, 6, 512)    0           batch_normalization_37[0][0]     
                                                                 leaky_re_lu_35[0][0]             
__________________________________________________________________________________________________
leaky_re_lu_37 (LeakyReLU)      (None, 6, 6, 512)    0           add_16[0][0]                     
__________________________________________________________________________________________________
conv2d_33 (Conv2D)              (None, 2, 2, 1024)   4718592     leaky_re_lu_37[0][0]             
__________________________________________________________________________________________________
batch_normalization_38 (BatchNo (None, 2, 2, 1024)   4096        conv2d_33[0][0]                  
__________________________________________________________________________________________________
leaky_re_lu_38 (LeakyReLU)      (None, 2, 2, 1024)   0           batch_normalization_38[0][0]     
__________________________________________________________________________________________________
FC (Flatten)                    (None, 4096)         0           leaky_re_lu_38[0][0]             
__________________________________________________________________________________________________
dense_1 (Dense)                 (None, 2)            8194        FC[0][0]                         
==================================================================================================
Total params: 18,897,602
Trainable params: 18,878,402
Non-trainable params: 19,200
__________________________________________________________________________________________________
Train on 108 samples, validate on 6 samples
Epoch 1/40

 32/108 [=======>......................] - ETA: 33s - loss: 0.8569 - acc: 0.5625
…
